Assets/500Player.onnx (onnx, 38003 bytes, 6 tensors)

network_body._body_endoder.seq_layers.0.weight f4 [64, 20]
-0.1947032 -0.29877913 0.045054648 0.07089317 -0.00063411996 -0.27364996 -0.32986286 0.20832059
0.14372769 -0.37717584 -0.1266814 0.39639455 0.03455766 -0.20159316 0.3260572 0.21287632
0.103523165 -0.23344226 0.15136386 -0.19351394 -0.163794 -0.016815815 -0.46733302 0.12770607
0.07140673 0.5972798 -0.17285995 0.23058967 0.028347047 0.008766268 -0.18533824 -0.20954603
0.10521054 0.06912208 -0.2275805 -0.13631324 0.118604824 0.5403495 -0.34379908 0.013943819
0.3904513 -0.1365149 0.013772546 0.12756956 -0.099833935 0.29536462 -0.06250821 0.062217552
-0.19157706 -0.047647614 0.21993497 -0.29434335 -0.14856964 -0.036887456 -0.2252035 0.10756297
-0.3758188 -0.536201 -0.34198007 -0.056179073 -0.078754306 -0.032239523 -0.2935248 -0.30615997
-0.21981138 0.03108096 -0.20793848 -0.6063108 0.2917917 -0.18427436 -0.19068877 -0.06905869
-0.004341354 0.33756015 -0.1431628 -0.17795558 -0.017139303 -0.1194936 0.0075176 0.039147835
0.22670051 0.28219497 0.017136546 0.23888166 0.17886281 -0.10869253 -0.23865366 -0.56860083
0.01541136 -0.055864107 0.07515045 -0.17178282 -0.046238758 -0.19935709 0.102737755 -0.021660855
-0.16894877 -0.29087967 -0.09019921 -0.04298145 -0.02882529 0.09009935 -0.10038729 0.093203425
0.14735353 -0.05237459 -0.5421396 0.1871975 -0.16362652 0.13439108 -0.29316738 -0.04989513
0.0008517615 0.10350751 0.39356044 -0.5594194 -0.09216342 -0.1397489 0.015039628 -0.17794305
-0.011110664 -0.19166017 0.19619891 -0.077496104 0.11537698 -0.08787136 0.046046 0.1852847
0.27371895 0.069848225 0.22404619 -0.06408129 -0.5498304 -0.38517722 -0.11461086 -0.21998644
-0.06770054 -0.09222056 0.18911839 0.05795866 -0.06135658 -0.35732347 -0.0051075453 0.3517937
-0.12092968 0.4988129 0.1581793 -0.19818908 0.066590175 -0.29465044 0.19174062 -0.009305481
-0.41126767 0.07702624 0.029862868 -0.0049922634 -0.034141798 -0.18684357 0.03507027 0.061435483
0.12791772 0.19801775 0.33465436 0.0071383757 -0.18365984 0.0018369239 0.13954678 -0.06263203
-0.34906134 0.035092574 -0.005058056 0.09011377 -0.5607374 -0.38347772 0.070249535 0.047351908
-0.38805905 -0.000815847 0.16514869 0.019503184 0.18362571 -0.044273265 -0.059403483 0.25753805
0.30496037 -0.007360227 0.13993119 -0.3286234 -0.021883817 -0.17897621 0.3743291 -0.23884661
-0.33203667 0.0347821 0.45417875 0.54714566 -0.15738066 0.14992169 0.1854166 -0.23188119
0.04379775 0.19960888 0.090452895 0.13153234 -0.13269879 -0.2722528 0.49957815 -0.17111452
-0.284145 0.033854257 0.11868032 -0.41459748 0.21931432 0.22016388 0.058038812 0.20788029
-0.04645623 0.012932537 -0.5363325 -0.17676505 -0.22503868 -0.028573578 0.15561147 0.3407353
0.10025561 0.18318807 -0.13851705 -0.06238812 -0.22298941 0.25785264 0.16994992 0.119200386
0.034708988 0.07728862 0.3751216 -0.10575811 -0.11458468 0.37966174 0.21361886 -0.06172268
-0.12098741 -0.010545045 0.2817913 0.06395225 -0.2511079 -0.06394818 0.12922007 0.22264569
0.3410162 -0.036523707 -0.09634337 0.45646 0.1351625 -0.41259885 -0.38969824 0.15025413
00000000: 4760 47be 94f9 98be 398b 383d 7030 913d
00000010: 123b 26ba d91b 8cbe c9e3 a8be fe51 553e
00000020: 5a2d 133e 311d c1be c5b8 01be 3af4 ca3e
00000030: 558c 0d3d 706e 4ebe f8f0 a63e 40fc 593e
00000040: f403 d43d 7d0b 6fbe 21ff 1a3e 8528 46be
00000050: 9db9 27be 52c1 89bc 4646 efbe 61c5 023e
00000060: b13d 923d 54e7 183f 3302 31be b31f 6c3e
00000070: 1138 e83c 65a0 0f3c 4fc9 3dbe 3c93 56be
00000080: a078 d73d e18f 8d3d dd0a 69be b395 0bbe
00000090: 16e7 f23d 5854 0a3f 6f06 b0be 9e74 643c
000000a0: 3ce9 c73e 90ca 0bbe 3fa6 613c 98a1 023e
000000b0: bc75 ccbd 083a 973e 4e04 80bd d5d7 7e3d
000000c0: c72c 44be 252a 43bd a236 613e 2cb4 96be
000000d0: a422 18be 4d17 17bd bf9b 66be f949 dc3d
000000e0: 526b c0be 7844 09bf 0318 afbe 071c 66bd
000000f0: f049 a1bd 970d 04bd e248 96be 00c1 9cbe
00000100: 3c16 61be 7f9d fe3c d3ed 54be 2f37 1bbf
00000110: b965 953e 6bb2 3cbe eb43 43be a46e 8dbd
00000120: eb41 8ebb afd4 ac3e 4599 12be fd39 36be
00000130: b967 8cbc 10b9 f4bd 3356 f63b 7b59 203d
00000140: 2e24 683e dc7b 903e f161 8c3c 659d 743e
00000150: d027 373e 309a debd a061 74be d38f 11bf
00000160: ee7f 7c3c c3d1 64bd 7be8 993d d6e7 2fbe
00000170: da64 3dbd 4424 4cbe 2c68 d23d 1b72 b1bc
00000180: e800 2dbe 2eee 94be 5dba b8bd 510d 30bd
00000190: 0423 ecbc 0286 b83d da97 cdbd 70e1 be3d
000001a0: d8e3 163e bd86 56bd a9c9 0abf b4b0 3f3e
000001b0: b68d 27be d19d 093e 091a 96be d65e 4cbd
000001c0: bf48 5f3a bffb d33d c180 c93e 1c36 0fbf
000001d0: 2dc0 bcbd 561a 0fbe c668 763c b436 36be
000001e0: 8109 36bc 9042 44be 5ee8 483e 47b6 9ebd
000001f0: c44a ec3d e6f5 b3bd bb9a 3c3d 46bb 3d3e
00000200: e424 8c3e 960c 8f3d 5d6c 653e 0d3d 83bd
00000210: afc1 0cbf f335 c5be 19b9 eabd 2044 61be
00000220: 95a6 8abd 22de bcbd 40a8 413e 0f66 6d3d
00000230: 0a51 7bbd 1af3 b6be 325d a7bb 4e1e b43e
00000240: fba9 f7bd 6864 ff3e c1f9 213e 14f2 4abe
00000250: 6e60 883d 6cdc 96be a757 443e 0476 18bc
00000260: ad91 d2be efbf 9d3d f9a2 f43c 2496 a3bb
00000270: 45d8 0bbd ec53 3fbe d8a5 0f3d c6a3 7b3d
00000280: ddfc 023e 2ac5 4a3e d157 ab3e 09e9 e93b
00000290: 5311 3cbe f0c4 f03a 5ae5 0e3e 3945 80bd
000002a0: 2bb8 b2be 3bbd 0f3d 0dbe a5bb 918d b83d
000002b0: 7c8c 0fbf 3157 c4be fdde 8f3d 13f4 413d
000002c0: adaf c6be 91de 55ba bd1c 293e 24c5 9f3c
000002d0: 6108 3c3e e257 35bd 1151 73bd 07dc 833e
000002e0: c423 9c3e 0f2e f1bb 1f4a 0f3e 5441 a8be
000002f0: b145 b3bc 8a45 37be 10a8 bf3e 3594 74be
00000300: b600 aabe ad77 0e3d 1e8a e83e bd11 0c3f
00000310: 6528 21be 1285 193e d9dd 3d3e 4372 6dbe
00000320: 4565 333d 4566 4c3e 5e3f b93d 6ab0 063e
00000330: 31e2 07be b864 8bbe b5c8 ff3e a538 2fbe
00000340: 747b 91be c3aa 0a3d ab0e f33d 1f46 d4be
00000350: ef93 603e a472 613e 1bba 6d3d 92de 543e
00000360: e348 3ebd fee2 533c 164d 09bf e601 35be
00000370: 8a70 66be 2313 eabc 9d58 1f3e db74 ae3e
00000380: d052 cd3d a795 3b3e 6ad7 0dbe af8a 7fbd
00000390: 5657 64be 4305 843e 5a07 2e3e 551f f43d
000003a0: 032b 0e3d 7f49 9e3d f00f c03e b597 d8bd
000003b0: 5fab eabd 0663 c23e e7be 5a3e ecd0 7cbd
000003c0: 3fc8 f7bd 20c5 2cbc f346 903e 66f9 823d
000003d0: 3791 80be 43f7 82bd 4452 043e 3bfd 633e
000003e0: ad99 ae3e e299 15bd ac4f c5bd 20b5 e93e
000003f0: 0a68 0a3e 2840 d3be 8786 c7be 38dc 193e

network_body._body_endoder.seq_layers.0.bias f4 [64]
-0.09234717 0.03169536 0.15003067 -0.05048451 0.05303104 -0.06241476 -0.04176143 0.08545487
-0.08532474 0.023022182 -0.043157645 0.09906284 -0.04430581 0.041896768 -0.10173367 0.021497963
-0.007240846 -0.122346774 -0.099698216 0.016725406 -0.14162178 -0.020459354 0.0019055672 -0.058692455
0.054388918 0.033845555 0.012557808 -0.061271787 -0.09118963 -0.023832912 -0.06732948 0.0213332
0.051462144 -0.03752296 -0.027396537 -0.11366632 -0.046165314 0.05794684 0.13905932 -0.08329605
0.022772772 -0.04597305 -0.013525813 -0.04272651 -0.073173605 -0.09105736 -0.08608192 0.062427353
-0.008493835 0.010664975 -0.029791316 -0.03040855 -0.0657906 -0.120607555 -0.043363586 -0.03625149
0.12843928 0.09837367 -0.09028492 -0.053421095 -0.042793624 -0.10715638 0.020282516 0.03177947
00000000: 8320 bdbd fed2 013d a4a1 193e d8c8 4ebd
00000010: 1337 593d 9fa6 7fbd 090e 2bbd f602 af3d
00000020: bdbe aebd 0499 bc3c 12c6 30bd 75e1 ca3d
00000030: 027a 35bd f29b 2b3d be59 d0bd 7f1c b03c
00000040: 9e44 edbb f290 fabd 942e ccbd b803 893c
00000050: 4d05 11be 609a a7bc 3ac4 f93a 8067 70bd
00000060: eac6 5e3d a3a1 0a3d 44bf 4d3c 20f8 7abd
00000070: a1c1 babd 3d3d c3bc 0ae4 89bd f7c2 ae3c
00000080: f8c9 523d adb1 19bd b46e e0bc e3c9 e8bd
00000090: d717 3dbd aa59 6d3d 9165 0e3e 1f97 aabd
000000a0: f78d ba3c 3d4e 3cbd 5f9b 5dbc fe01 2fbd
000000b0: 0bdc 95bd 487c babd b84b b0bd d3b3 7f3d
000000c0: ba29 0bbc 26bc 2e3c eb0c f4bc 5a1b f9bc
000000d0: 39bd 86bd 1801 f7bd 049e 31bd 717c 14bd
000000e0: 9685 033e 2278 c93d 4de7 b8bd 14d0 5abd
000000f0: 5e48 2fbd ce74 dbbd 8527 a63c 312b 023d

network_body._body_endoder.seq_layers.2.weight f4 [64, 64]
0.20815851 0.12534983 0.05112828 -0.01796489 0.08014203 0.22376281 0.14071362 0.20186673
0.10558085 -0.17664932 -0.020284126 -0.028092809 -0.14070407 0.20856383 0.107723646 0.08406951
0.21788146 0.099054836 -0.07647642 -0.06941653 -0.07089693 0.08597522 -0.028355317 0.10947242
0.06688493 0.021480964 -0.028207138 0.03819689 -0.046624143 -0.12015077 -0.013235215 0.10764902
0.093207926 0.18163128 -0.14285052 0.03928929 0.0024326227 -0.28646076 0.1001245 0.025809089
-0.26246566 0.11572161 -0.22996359 -0.2999233 -0.006267193 -0.18198134 0.16782692 0.038823087
0.12482678 -0.02200472 -0.0023202824 0.013213308 0.105404995 0.08039504 0.08942699 -0.005657859
0.0021566243 -0.09664037 -0.21453597 -0.04116045 0.009041858 0.14091267 0.0037291197 0.2734855
0.34081793 -0.10059303 0.029067295 -0.104795255 0.21657318 0.17360352 0.08486702 -0.0014375764
-0.09503775 -0.13922302 -0.15863514 0.11569234 -0.18302152 0.029040055 -0.07983137 -0.22636741
-0.10878344 0.11085535 -0.41990566 0.15318392 0.1603855 0.052090794 0.12105492 0.21041854
0.26714852 -0.161554 -0.16162501 -0.18999827 0.067393616 -0.10632286 -0.1605366 0.27424645
-0.049755733 0.0692081 -0.020663887 0.13859566 -0.13424233 -0.068856314 0.20164683 -0.022391833
-0.04888149 0.3055184 -0.018879725 -0.1626106 0.104219645 0.117261685 0.036112323 0.17849445
0.022824168 0.13316153 0.032374166 0.036657415 -0.10177474 -0.01562999 -0.057406977 -0.28544107
-0.18299638 0.012186085 0.11656747 -0.11456473 0.081655554 0.09935394 0.073871665 -0.056700706
0.03111083 0.11782315 0.30990565 0.046059452 0.18152744 0.028114231 0.2475823 -0.12364564
-0.050935946 0.12617946 -0.023734288 0.01563879 0.004262001 -0.27855435 -0.12311387 -0.2541676
0.18013832 -0.007747675 -0.06511871 0.13596606 0.075976685 0.02814495 0.29806426 -0.14228715
0.12133505 -0.07909414 -0.0026476858 -0.1056689 -0.05333493 0.17732951 -0.096189596 0.15189776
0.13116187 0.10815982 -0.05408028 0.05207734 0.14984722 -0.16192521 0.094556294 0.07345579
-0.017340688 0.21530548 0.2982608 -0.011638616 0.10309129 -0.06367697 0.20012186 0.13786295
0.20817727 0.31056482 -0.31401807 0.20504484 0.10877712 -0.22067352 0.082515515 -0.1881878
0.067994714 0.045755245 -0.0952004 -0.02670506 0.06399942 0.08028892 -0.07727317 0.1322153
0.07558509 0.05620571 0.057618517 0.122485906 -0.097554885 -0.07163163 -0.13027716 -0.10739322
0.26599845 0.035634045 -0.19092806 -0.0063648243 0.11944065 0.33694497 0.15251504 -0.048378937
0.0024829188 -0.041979004 -0.049426414 0.069366395 -0.036525887 -0.103678815 0.101518765 0.10420377
0.0077026817 0.004417411 -0.10413169 -0.013679976 -0.119228296 -0.09940917 -0.0075962935 0.25644064
0.01950867 -0.24953187 0.12110091 0.03790261 -0.063087694 -0.07242496 0.46583557 0.023197046
0.1065391 -0.030573366 -0.06052915 0.021566734 0.15783693 -0.08641629 0.028036349 -0.027493834
-0.103072226 0.09131856 0.10773097 -0.22836278 0.07103052 0.20139372 -0.3614914 -0.2366963
-0.09694274 0.10395424 -0.15185596 0.12286584 0.109042175 0.28605428 0.084305994 -0.075694524
00000000: 8127 553e b55b 003e e36b 513d 1b2b 93bc
00000010: 8121 a43d 1422 653e 3b17 103e 27b6 4e3e
00000020: c63a d83d 8fe3 34be e52a a6bc e422 e6bc
00000030: ba14 10be c291 553e 379e dc3d a32c ac3d
00000040: 511c 5f3e 43dd ca3d ab9f 9cbd 412a 8ebd
00000050: 6932 91bd c713 b03d 6949 e8bc 1333 e03d
00000060: f7fa 883d d9f8 af3c a812 e7bc 5874 1c3d
00000070: f5f8 3ebd 9b11 f6bd 84d8 58bc 1777 dc3d
00000080: cce3 be3d 8dfd 393e 6847 12be ceed 203d
00000090: a36c 1f3b fcaa 92be 130e cd3d 956d d33c
000000a0: e661 86be 74ff ec3d 937b 6bbe 8c8f 99be
000000b0: 065d cdbb 5159 3abe d2da 2b3e f504 1f3d
000000c0: 2fa5 ff3d 3e43 b4bc e10f 18bb a17c 583c
000000d0: 93de d73d 28a6 a43d 7f25 b73d 9065 b9bb
000000e0: 2756 0d3b 63eb c5bd 51af 5bbe dc97 28bd
000000f0: 4d24 143c 694b 103e 3f64 743b 4b06 8c3e
00000100: b07f ae3e b803 cebd 891e ee3c e59e d6bd
00000110: 5cc5 5d3e 1fc5 313e c3ce ad3d 0f6d bcba
00000120: 27a3 c2bd 7b90 0ebe 4071 22be 1bf0 ec3d
00000130: fe69 3bbe 69e5 ed3c a17e a3bd dccc 67be
00000140: dac9 debd 2108 e33d e0fd d6be 3fdc 1c3e
00000150: 193c 243e 285d 553d a4eb f73d f577 573e
00000160: b1c7 883e 696e 25be 0781 25be e88e 42be
00000170: aa05 8a3d cdbf d9bd b563 24be 086a 8c3e
00000180: abcc 4bbd fabc 8d3d 5047 a9bc 05ec 0d3e
00000190: d276 09be 8a04 8dbd 827c 4e3e 146f b7bc
000001a0: f537 48bd e86c 9c3e a7a9 9abc 6583 26be
000001b0: 1c71 d53d e526 f03d 84ea 133d 40c7 363e
000001c0: c0f9 ba3c 7f5b 083e c69a 043d 1626 163d
000001d0: 466f d0bd 770a 80bc 9423 6bbd 5525 92be
000001e0: 6763 3bbe 25a8 473c edba ee3d eaa0 eabd
000001f0: 073b a73d 147a cb3d 074a 973d 003f 68bd
00000200: 24dc fe3c 434d f13d f4ab 9e3e d6a8 3c3d
00000210: 54e2 393e d14f e63c 3786 7d3e ed39 fdbd
00000220: 36a2 50bd 3035 013e 696e c2bc eb1c 803c
00000230: 41a8 8b3b ad9e 8ebe 2023 fcbd 4122 82be
00000240: 2e76 383e 35e0 fdbb f55c 85bd b03a 0b3e
00000250: aa99 9b3d 3d90 e63c e19b 983e b9b3 11be
00000260: 837e f83d 1cfc a1bd cc84 2dbb f068 d8bd
00000270: ba75 5abd de95 353e 0dff c4bd 168b 1b3e
00000280: 4c4f 063e e582 dd3d 4983 5dbd 0d4f 553d
00000290: 8d71 193e b9cf 25be bba6 c13d fd6f 963d
000002a0: 0f0e 8ebc 0a79 5c3e a4b5 983e e5af 3ebc
000002b0: 8721 d33d 1269 82bd bfec 4c3e f22b 0d3e
000002c0: 6c2c 553e 5a02 9f3e fac6 a0be 46f7 513e
000002d0: 8ac6 de3d 3df8 61be e5fd a83d 4db4 40be
000002e0: d040 8b3d da69 3b3d 6df8 c2bd 92c4 dabc
000002f0: 2112 833d 846e a43d 6541 9ebd 7363 073e
00000300: 5bcc 9a3d f537 663d 6501 6c3d e4d9 fa3d
00000310: dbca c7bd 9bb3 92bd 6067 05be faf0 dbbd
00000320: f330 883e 01f5 113d a582 43be 0490 d0bb
00000330: 4d9d f43d 0d84 ac3e e72c 1c3e fe28 46bd
00000340: 77b8 223b 2df2 2bbd 5a73 4abd f80f 8e3d
00000350: 2b9c 15bd 8f55 d4bd 12e9 cf3d c968 d53d
00000360: c766 fc3b eebf 903b ff42 d5bd fa21 60bc
00000370: f72d f4bd 0997 cbbd 54ea f8bb 304c 833e
00000380: a5d0 9f3c 4885 7fbe c103 f83d c43f 1b3d
00000390: 1f34 81bd 8a53 94bd 0082 ee3e bb07 be3c
000003a0: 2c31 da3d ff74 fabc 6aed 77bd b8ac b03c
000003b0: 01a0 213e 06fb b0bd 7cac e53c c03a e1bc
000003c0: 8817 d3bd 3a05 bb3d 0ea2 dc3d efd7 69be
000003d0: 7378 913d 283a 4e3e 6715 b9be 8460 72be
000003e0: ea89 c6bd f6e5 d43d 2180 1bbe 16a1 fb3d
000003f0: 8151 df3d b575 923e 9fa8 ac3d bb05 9bbd

network_body._body_endoder.seq_layers.2.bias f4 [64]
0.09893371 -0.033446144 0.13425355 -0.0105136195 0.015429544 0.03724057 -0.008850424 0.054771192
-0.029094525 0.015875436 0.081107005 0.040338054 -0.037001792 0.0091658775 -0.07465488 -0.031179748
-0.048957795 0.043426476 -0.005879438 -0.06185513 -0.002067574 -0.0022454045 -0.022591852 0.004482786
-0.0031067573 -0.005193048 0.052292675 -0.063087836 0.09106578 0.002742895 0.0051002856 -0.062548585
0.028494462 0.040641766 2.8436478e-05 -0.027100831 -0.05279365 0.062061563 -0.038953625 -0.0055548023
0.01502703 -0.0028059022 0.060299214 -0.010996442 0.018565945 0.025450503 0.0048455107 0.005823603
-0.07350894 0.0089912545 0.042771246 -0.0077014198 0.045651462 -0.03848765 0.021867415 -0.005541378
0.0058520483 0.0408344 0.057018846 -0.11242039 -0.0049962522 -0.022829836 0.050194405 -0.012314067
00000000: c29d ca3d d3fe 08bd c379 093e 5141 2cbc
00000010: 33cc 7c3c 9189 183d 5e01 11bc c257 603d
00000020: a457 eebc 340d 823c 6e1b a63d 8439 253d
00000030: 318f 17bd 7a2c 163c a8e4 98bd ac6c ffbc
00000040: f887 48bd f6df 313d 4da8 c0bb ce5b 7dbd
00000050: 2380 07bb a327 13bb 8c12 b9bc 56e4 923b
00000060: bd9a 4bbb 722a aabb d830 563d 3234 81bd
00000070: b280 ba3d 24c2 333b 4c20 a73b 7919 80bd
00000080: 386d e93c fb77 263d df8a ee37 9002 debc
00000090: 283e 58bd 4434 7e3d d68d 1fbd 0f05 b6bb
000000a0: ef33 763c 3ae3 37bb 4ffc 763d 6c2a 34bc
000000b0: 9c17 983c 937d d03c 17c7 9e3b ecd3 be3b
000000c0: db8b 96bd 0e50 133c e730 2f3d 315c fcbb
000000d0: 07fd 3a3d 3aa5 1dbd 4b23 b33c 7394 b5bb
000000e0: 8ac2 bf3b f941 273d 988c 693d a93c e6bd
000000f0: 9ab7 a3bb a305 bbbc a698 4d3d f1c0 49bc

action_model._discrete_distribution.branches.0.weight f4 [54, 64]
-0.0039581154 -0.19480646 -0.13719848 0.089431405 -0.13042437 0.08333862 -0.10225002 -0.122249305
0.11860854 -0.014221651 0.031837918 0.069538586 0.081876256 0.041780896 -0.002570182 -0.05898535
-0.12213338 -0.021076024 0.03478548 0.17360123 -0.019205965 0.12054442 -0.18718305 -0.18525484
-0.06996209 -0.06559001 -0.020994708 0.037479732 -0.21088633 0.049044687 -0.09013415 0.111753576
0.06321348 -0.07470547 -0.062574476 0.1588782 -0.050531495 -0.07092336 -0.020382278 0.07295117
0.008601253 -0.14961214 -0.25974482 -0.07159883 0.05330393 -0.09267528 0.008320782 -0.0064020897
-0.056461997 0.17509998 -0.116753675 0.023320569 0.020014381 0.06497759 -0.15178694 -0.09875044
-0.09970624 -0.049686596 0.11254443 -0.02778528 0.041998938 -0.07635201 0.10492586 0.046079554
0.015004133 0.13003145 -0.0005020573 -0.020627785 0.06554901 0.10089981 0.039707553 0.009834145
0.13731886 0.05230357 0.10039029 -0.17916806 -0.10957221 0.25523105 0.18992397 0.055579126
0.1310237 -0.05879622 -0.005230441 0.09804988 0.021933286 0.17130078 0.09386326 0.0034531683
-0.072453104 0.0927489 -0.022916608 0.2013645 -0.078415595 0.027292807 -0.02576121 0.041632395
0.102020584 -0.079738595 -0.069642894 0.07800251 0.1692226 0.004062541 0.27493718 -0.020951066
0.07216831 0.027751446 -0.22093163 0.099980235 0.13460712 0.095932975 0.18756735 0.18558252
0.13576855 -0.015184995 0.067936465 -0.09316192 0.14751036 0.026460364 -0.086747386 -0.029733462
0.15961018 0.09969099 -0.15186945 0.067632355 0.08482746 -0.13742582 0.028415684 0.06727079
0.047539227 -0.07031402 0.077815734 0.05955185 0.17435974 -0.0037867455 0.050698053 0.15269747
0.06053344 0.011721418 0.05605403 -0.027328571 -0.080351286 0.06692593 0.048428617 -0.03872393
-0.0140624065 -0.08265409 0.09132869 0.012905399 0.062946655 0.06529787 0.13531409 0.047014803
0.014908575 0.005798722 0.10366123 -0.036425572 0.10243658 0.07207914 0.2560648 0.01633996
-0.07700695 0.0692909 0.09050737 -0.003862527 -0.019789737 0.06471099 -0.098294646 0.09482688
-0.014419108 -0.031349383 0.18147695 0.07629907 -0.06642777 -0.023460139 0.13610338 0.11147471
-0.02599549 0.06672705 -0.042828176 -0.0838168 -0.0031356462 0.15071534 0.16121884 0.112972915
0.08970901 -0.047428057 0.13206567 -0.010299086 0.0079403445 -0.083159685 0.073074564 0.10647166
0.2910618 0.10951359 -0.023082646 0.08290843 0.081728905 -0.022102969 0.26926094 0.10012355
0.11511354 -0.019529829 -0.058823097 0.15734316 0.10217476 0.021026414 0.22346397 -0.0058788136
-0.008974661 -0.14599577 -0.03920072 -0.035252135 0.13548805 0.04125249 -0.056253083 0.06530577
0.083004266 0.017626056 0.046739228 0.03753104 0.030501844 0.124675676 -0.029183714 0.05835096
0.036074005 0.008629219 0.019528382 0.016418401 -0.19446069 0.09958773 -0.022406073 0.062399633
0.06332443 -0.13839602 0.07936682 0.124811955 0.08094772 0.074651584 0.0022544025 0.054983843
0.105255775 0.1368501 -0.03802108 0.059613787 -0.021143746 0.045917794 0.016180657 0.056427225
0.024853189 0.08823815 0.0619225 0.09125655 0.048317928 -0.0398265 0.030061541 0.01172893
00000000: 14b3 81bb 587b 47be c27d 0cbe d027 b73d
00000010: f78d 05be 70ad aa3d 7568 d1bd d85d fabd
00000020: 09e9 f23d ed01 69bc 7a68 023d 3f6a 8e3d
00000030: bdae a73d 7222 2b3d 8070 28bb 9f9a 71bd
00000040: 1121 fabd a0a7 acbc 387b 0e3d 85c4 313e
00000050: d455 9dbc fedf f63d eaac 3fbe 72b3 3dbe
00000060: 4948 8fbd 0e54 86bd 18fd abbc 5984 193d
00000070: 96f2 57be 15e3 483d 4198 b8bd 0fdf e43d
00000080: 1276 813d 2eff 98bd 0c27 80bd f8b0 223e
00000090: 1dfa 4ebd 4440 91bd bcf8 a6bc 6c67 953d
000000a0: 45ec 0c3c ed33 19be 46fd 84be 68a2 92bd
000000b0: 3955 5a3d 8acc bdbd e453 083c 9fc8 d1bb
000000c0: b244 67bd 694d 333e 8d1c efbd c70a bf3c
000000d0: 33f5 a33c f912 853d 096e 1bbe ac3d cabd
000000e0: c932 ccbd 2c84 4bbd b27d e63d f59d e3bc
000000f0: 1407 2c3d 715e 9cbd 5fe3 d63d eabd 3c3d
00000100: e5d3 753c f726 053e 7f9c 03ba 9afb a8bc
00000110: 8f3e 863d 8fa4 ce3d 63a4 223d 651f 213c
00000120: 519d 0c3e 453c 563d 6d99 cd3d d577 37be
00000130: 6567 e0bd a5ad 823e 6e7b 423e f0a6 633d
00000140: 142b 063e 4ed4 70bd 1f64 abbb 60ce c83d
00000150: 6fad b33c 7969 2f3e 613b c03d 8d4e 623b
00000160: 4b62 94bd 23f3 bd3d 9cbb bbbc 7f32 4e3e
00000170: 5b98 a0bd 2a95 df3c 2c09 d3bc bb86 2a3d
00000180: 2bf0 d03d fd4d a3bd efa0 8ebd c8bf 9f3d
00000190: b048 2d3e 101f 853b 91c4 8c3e 92a1 abbc
000001a0: fbcc 933d 0057 e33c e73b 62be 70c2 cc3d
000001b0: 73d6 093e 8278 c43d a811 403e 5809 3e3e
000001c0: e906 0b3e 7cca 78bc 4622 8b3d adcb bebd
000001d0: f50c 173e 68c3 d83c 9da8 b1bd 9793 f3bc
000001e0: da70 233e ca2a cc3d aa83 1bbe d582 8a3d
000001f0: 05ba ad3d 5bb9 0cbe 02c8 e83c 45c5 893d
00000200: 7eb8 423d cc00 90bd db5d 9f3d a4ec 733d
00000210: 5c8b 323e 0c2b 78bb c3a8 4f3d ba5c 1c3e
00000220: eaf1 773d 310b 403c e998 653d 2be0 dfbc
00000230: 378f a4bd 7610 893d 165d 463d fc9c 1ebd
00000240: 0266 66bc 8c46 a9bd 890a bb3d 2b71 533c
00000250: 2dea 803d e4ba 853d c78f 0a3e 9892 403d
00000260: 1943 743c 3503 be3b 574c d43d fb32 15bd
00000270: 45ca d13d 3a9e 933d ed1a 833e 61db 853c
00000280: d2b5 9dbd 63e8 8d3d ee5b b93d 7322 7dbb
00000290: 161e a2bc 3287 843d b44e c9bd 9834 c23d
000002a0: 1f3e 6cbc 3668 00bd 18d5 393e b042 9c3d
000002b0: 480b 88bd 7a2f c0bc af5e 0b3e da4c e43d
000002c0: 7ef4 d4bc 31a8 883d 996c 2fbd 24a8 abbd
000002d0: 6a7f 4dbb 1f55 1a3e 8d16 253e 585e e73d
000002e0: 5cb9 b73d ec43 42bd 393c 073e 7fbd 28bc
000002f0: 3818 023c a04f aabd 1ea8 953d d00d da3d
00000300: 0d06 953e a948 e03d d117 bdbc e5cb a93d
00000310: 7c61 a73d 4911 b5bc 92dc 893e 930d cd3d
00000320: a6c0 eb3d 05fd 9fbc 7df0 70bd 911e 213e
00000330: 0041 d13d 963f ac3c bdd3 643e 10a3 c0bb
00000340: 750a 13bc ea7f 15be ef90 20bd 8b64 10bd
00000350: 61bd 0a3e 5ff8 283d a269 66bd 08bf 853d
00000360: 24fe a93d 8564 903c a271 3f3d 26ba 193d
00000370: 01df f93c f655 ff3d af12 efbc 6b01 6f3d
00000380: 56c2 133d 9161 0d3c fcf9 9f3c e27f 863c
00000390: b420 47be a7f4 cb3d f18c b7bc c296 7f3d
000003a0: 3db0 813d b0b7 0dbe 128b a23d 699d ff3d
000003b0: ebc7 a53d eee2 983d 99be 133b bd36 613d
000003c0: 5790 d73d 6f22 0c3e febb 1bbd 962d 743d
000003d0: a635 adbc 4c14 3c3d 4c8d 843c 3c20 673d
000003e0: ea98 cb3c 34b6 b43d 73a2 7d3d b7e4 ba3d
000003f0: 05e9 453d 1d21 23bd 9f43 f63c b32a 403c

action_model._discrete_distribution.branches.0.bias f4 [54]
0.09200561 0.03431406 -0.075790234 0.06335692 0.18571576 0.08827505 0.10118727 0.124484695
0.08726427 0.021997757 0.10986957 0.111814745 0.1596558 0.051902045 0.030699551 0.045053508
0.1284925 0.10173326 0.13253643 0.04621296 0.13791104 0.0697642 0.059462804 0.012264746
0.032791916 0.1422816 0.08600844 0.008108662 0.09397492 0.09553726 -0.058216438 -0.04888269
0.11822587 0.113075726 0.001812724 0.0010161065 0.044806708 0.055437725 0.038552094 0.06485284
0.08453634 0.032949112 0.15974395 -0.03560622 0.1128445 0.0 0.0 0.0
0.0 0.0 0.0 0.0 0.0 -0.34282312
00000000: 706d bc3d e68c 0c3d e937 9bbd 46c1 813d
00000010: 462c 3e3e 8dc9 b43d 453b cf3d d5f1 fe3d
00000020: 9cb7 b23d a434 b43c 4c03 e13d 21ff e43d
00000030: cf7c 233e 3d97 543d a07d fb3c 078a 383d
00000040: 8a93 033e 8759 d03d a1b7 073e cd49 3d3d
00000050: 8d38 0d3e 88e0 8e3d 458f 733d 13f2 483c
00000060: d150 063d 45b2 113e 3125 b03d 32da 043c
00000070: ec75 c03d 0aa9 c33d 5c74 6ebd 3739 48bd
00000080: 6820 f23d 3f94 e73d ed98 ed3a e02e 853a
00000090: 3d87 373d ab12 633d cde8 1d3d 91d1 843d
000000a0: 6321 ad3d a6f5 063d eb93 233e d4d7 11bd
000000b0: 041b e73d 0000 0000 0000 0000 0000 0000
000000c0: 0000 0000 0000 0000 0000 0000 0000 0000
000000d0: 0000 0000 8386 afbe
