Assets/500Player.onnx (onnx, 38003 bytes, 6 tensors)

network_body._body_endoder.seq_layers.0.weight f4 [64, 20]
-0.137762 -0.24424002 -0.1712313 0.13262317 -0.09146359 0.38707596 0.30697754 0.29779008
0.046686403 -0.37557128 0.036716968 0.2387788 0.15408446 -0.036060646 -0.060750537 0.037732977
-0.08143704 -0.22556831 -0.0074468874 -0.036918804 0.10994771 0.40639865 -0.47101486 -0.059042767
0.08640038 -0.07118948 0.02914841 0.18901414 -0.041741736 -0.20258014 0.3144215 -0.4289974
0.012652086 -0.11951184 0.059806548 0.009917196 -0.27488017 0.3467754 0.4204746 -0.032615177
0.1977644 -0.11324176 0.38306513 0.037324645 0.20285979 -0.15743619 0.30006483 -0.10271886
0.0077561648 0.3896636 0.048923112 -0.102918394 0.17342657 -0.061981186 -0.39606073 -0.023343433
-0.38515714 -0.022288753 0.12871146 0.040616076 -0.113003075 0.037985515 0.012379827 0.16017567
-0.24970372 0.1750993 -0.08688015 0.34529188 -0.020907374 0.07031791 0.18590558 0.05387718
0.24080713 -0.055631373 -0.18431954 -0.0998936 -0.21369031 0.33380365 0.014363634 -0.24657024
0.017957818 -0.0379788 0.0819582 -0.03893749 0.25980738 -0.13649064 0.054692093 -0.13681668
-0.006505379 0.44596264 -0.50882447 -0.07859391 -0.08360646 0.18544665 0.15577711 0.06760928
-0.1536564 -0.33535418 -0.26132053 -0.09563443 0.06686624 0.14134897 0.03361454 -0.15831426
0.101062 0.16322157 -0.071670465 -0.14033367 0.012994075 0.34075466 -0.15375704 -0.15162028
0.08421214 0.3498036 -0.1716947 -0.15157674 -0.07228838 0.012941624 -0.41742873 -0.20819198
-0.051132124 -0.046493094 0.029811941 0.17405646 -0.018178567 0.010345628 0.2212332 0.07530445
0.4413042 0.015298951 -0.5082418 -0.2933276 -0.22100694 -0.16696732 0.22618477 0.29585952
0.0043833624 0.17024986 0.07337379 0.023257358 -0.24465416 0.2434072 0.047739867 -0.026157629
0.062181078 -0.33853707 -0.10424139 -0.12559503 0.2134518 -0.30454984 0.042864196 -0.05164356
-0.20654514 -0.29966828 0.06888662 -0.12602718 -0.4744825 -0.083066024 -0.10623518 0.013185882
-0.21161 0.6267789 -0.13980255 -0.25148734 -0.016088787 0.05705004 0.07562894 0.12811308
-0.012970835 0.059179444 -0.07697417 -0.1498774 0.14630695 -0.25850993 0.0126197 -0.088741906
-0.4799905 0.040784888 0.19993718 -0.14948897 0.057062503 0.0127275055 -0.05750479 0.03316558
0.031261746 0.3073194 -0.36197862 -0.08922611 -0.40794152 0.033857673 0.34038195 0.030607002
0.295145 -0.028496325 0.10356311 0.043126725 -0.0039112642 -0.2134945 0.12085168 -0.22811568
-0.016422307 -0.110799454 0.23786978 0.13840093 0.19512297 0.3056097 -0.2125164 0.03836985
-0.13316573 0.09437115 -0.28853035 -0.050956003 -0.39343733 -0.08576087 -0.06588335 -0.15882805
0.16882247 0.04280819 0.14604534 -0.17656496 0.2503125 -0.022837585 -0.15678418 -0.18264534
0.0013225531 0.030376967 -0.033178445 0.36753082 -0.0018824429 0.0337536 0.11456204 -0.094034396
0.056076024 -0.14968395 0.5236031 -0.20664768 -0.058801915 0.011488769 -0.5105341 -0.2657232
0.36750728 -0.104478486 -0.146041 0.15130202 -0.086621515 -0.18142161 0.37240362 -0.05052393
-0.099977 -0.14239988 -0.09668337 0.20479858 -0.04710434 -0.043795023 -0.29101503 -0.34799045
00000000: 7b11 0dbe 0e1a 7abe 4257 2fbe 5ece 073e
00000010: 4351 bbbd d22e c63e 292c 9d3e f177 983e
00000020: 3e3a 3f3d e14a c0be 8864 163d 6e82 743e
00000030: 51c8 1d3e 54b4 13bd 8ed5 78bd e58d 1a3d
00000040: 76c8 a6bd 61fb 66be 0505 f4bb 2c38 17bd
00000050: 442c e13d 7c13 d03e dc28 f1be d4d6 71bd
00000060: aff2 b03d cacb 91bd a5c8 ee3c ec8c 413e
00000070: 62f9 2abd 2b71 4fbe dbfb a03e 8ca5 dbbe
00000080: b24a 4f3c a0c2 f4bd b6f7 743d bc7b 223c
00000090: 18bd 8cbe 8c8c b13e 7248 d73e 7e97 05bd
000000a0: c082 4a3e 4ceb e7bd 1d21 c43e bae1 183d
000000b0: 7aba 4f3e f436 21be 19a2 993e 445e d2bd
000000c0: 6d27 fe3b fd81 c73e 9a63 483d e1c6 d2bd
000000d0: bc96 313e fcdf 7dbd 79c8 cabe ba3a bfbc
000000e0: 5133 c5be e796 b6bc f0cc 033e 0b5d 263d
000000f0: 286e e7bd b396 1b3d c2d4 4a3c 1705 243e
00000100: 55b2 7fbe 3b4d 333e 38ee b1bd 19ca b03e
00000110: f145 abbc d602 903d 085e 3e3e 51ae 5c3d
00000120: 2596 763e b9dd 63bd 43be 3cbe 0495 ccbd
00000130: a2d1 5abe 50e8 aa3e 7355 6b3c e97c 7cbe
00000140: 461c 933c a88f 1bbd b3d9 a73d eb7c 1fbd
00000150: 7905 853e 34c4 0bbe d104 603d ac19 0cbe
00000160: 132b d5bb 3755 e43e 5242 02bf d8f5 a0bd
00000170: dd39 abbd bae5 3d3e 0984 1f3e bc76 8a3d
00000180: 1a58 1dbe 8bb3 abbe cecb 85be fcdb c3bd
00000190: 2bf1 883d c9bd 103e 66af 093d 221d 22be
000001a0: 98f9 ce3d 8e23 273e f7c7 92bd a1b3 0fbe
000001b0: 1ae5 543c 6577 ae3e 7c72 1dbe 5942 1bbe
000001c0: 6a77 ac3d 7519 b33e bcd0 2fbe ef36 1bbe
000001d0: ee0b 94bd 1b09 543c 38b9 d5be 4730 55be
000001e0: eb6f 51bd 8b6f 3ebd 2c38 f43c db3b 323e
000001f0: 38eb 94bc b580 293c f58a 623e 3839 9a3d
00000200: a0f2 e13e 74a8 7a3c 221c 02bf 092f 96be
00000210: a54f 62be 7bf9 2abe fb9c 673e e67a 973e
00000220: 4fa2 8f3b fb55 2e3e ff44 963d 3786 be3c
00000230: 9f86 7abe bd3f 793e e18a 433d 8648 d6bc
00000240: 96b1 7e3d bb54 adbe 837c d5bd fc9b 00be
00000250: 1c93 5a3e f5ed 9bbe 5e92 2f3d 3388 53bd
00000260: 9280 53be 1f6e 99be 6e14 8d3d 450d 01be
00000270: 5fef f2be 851e aabd d491 d9bd 9909 583c
00000280: 4bb0 58be 9574 203f 6628 0fbe f3c2 80be
00000290: a2cc 83bc 4ead 693d 58e3 9a3d 1330 033e
000002a0: a083 54bc 2566 723d a2a4 9dbd 7679 19be
000002b0: 7dd1 153e 6a5b 84be dcc2 4e3c 51be b5bd
000002c0: 51c1 f5be 0e0e 273d 55bc 4c3e a313 19be
000002d0: 5fba 693d 0787 503c 258a 6bbd a2d8 073d
000002e0: 510c 003d f858 9d3e 4355 b9be 2ebc b6bd
000002f0: b6dd d0be 58ae 0a3d 8b46 ae3e 89bb fa3c
00000300: 3f1d 973e 2071 e9bc e518 d43d a6a5 303d
00000310: 102a 80bb 4d9e 5abe 1681 f73d 2897 69be
00000320: 1388 86bc d3ea e2bd 2394 733e f9b8 0d3e
00000330: 51ce 473e e078 9c3e e69d 59be b429 1d3d
00000340: 995c 08be a945 c13d 40ba 93be 3eb7 50bd
00000350: 9e70 c9be 65a3 afbd daed 86bd d2a3 22be
00000360: ccdf 2c3e a457 2f3d e98c 153e 72cd 34be
00000370: f628 803e e315 bbbc 088c 20be 6107 3bbe
00000380: 8559 ad3a 1ed9 f83c 1fe6 07bd 002d bc3e
00000390: 4dbc f6ba 3741 0a3d 819f ea3d 1b95 c0bd
000003a0: f9af 653d c046 19be da0a 063f 739b 53be
000003b0: 47da 70bd 643b 3c3c 5db2 02bf df0c 88be
000003c0: ea29 bc3e d1f8 d5bd c68b 15be ebee 1a3e
000003d0: 9f66 b1bd 96c6 39be b0ab be3e 2ef2 4ebd
000003e0: bec0 ccbd 46d1 11be ee01 c6bd b8b6 513e
000003f0: 7bf0 40bd 6962 33bd ecff 94be ce2b b2be

network_body._body_endoder.seq_layers.0.bias f4 [64]
0.03260482 -0.01683037 -0.06851141 -0.007540483 -0.05409613 0.0041722152 -0.015422967 -0.018439762
0.12335235 0.06154508 0.03711892 0.08388974 0.005880676 0.04786673 0.0027461047 0.0022530316
-0.007023897 0.13205425 0.006143687 -0.026678724 -0.004277372 0.0118091265 0.05837957 -0.006357521
0.02955105 0.03065029 -0.019836923 0.003844829 -0.002797198 0.11643587 0.039222337 -0.013957172
0.028661937 0.06536073 0.004095501 0.023356522 0.07148297 0.06085171 0.046267945 -0.012759012
0.083793 0.07617255 -0.040039085 -0.009498599 0.14206539 -0.07856877 -0.018217644 0.0011458239
0.07421052 -0.004472357 -0.05110274 -0.024482291 0.043983128 -0.03451963 0.019958554 0.0010793281
-0.025336506 0.20363852 -0.060810428 -0.041843485 0.061775345 0.03517063 -0.013257858 0.030539513
00000000: a28c 053d d8df 89bc b64f 8cbd 2816 f7bb
00000010: e793 5dbd 14b7 883b 9db0 7cbc fc0e 97bc
00000020: 28a0 fc3d b216 7c3d 020a 183d 62ce ab3d
00000030: b0b2 c03b e70f 443d fef7 333b 99a7 133b
00000040: b828 e6bb 3b39 073e fb50 c93b 578d dabc
00000050: 3229 8cbb 117b 413c 6a1f 6f3d c052 d0bb
00000060: 0b15 f23c 5116 fb3c 0b81 a2bc 87f9 7b3b
00000070: 3251 37bb ee75 ee3d 9aa7 203d 9fac 64bc
00000080: 70cc ea3c d9db 853d 8d33 863b 2d56 bf3c
00000090: aa65 923d a53f 793d 7583 3d3d 2d0b 51bc
000000a0: aa9b ab3d 5b00 9c3d 0600 24bd 03a0 1bbc
000000b0: 9779 113e aae8 a0bd 2b3d 95bc 782f 963a
000000c0: affb 973d da8c 92bb 1b51 51bd 168f c8bc
000000d0: a727 343d 7564 0dbd 1f80 a33c 3e78 8d3a
000000e0: 818e cfbc 9e86 503e 5b14 79bd 1364 2bbd
000000f0: 2508 7d3d 140f 103d 7d37 59bc 002e fa3c

network_body._body_endoder.seq_layers.2.weight f4 [64, 64]
-0.06968833 -0.07483368 -0.026858563 0.3038617 0.20734589 0.16321485 -0.10973247 -0.12220806
0.08919743 0.0094303675 -0.26760048 0.25101238 -0.09609809 0.21433793 0.032357186 0.13388221
-0.026218228 -0.14215188 -0.08218808 -0.17584933 0.10497367 0.08442105 -0.1084479 0.07731346
-0.34592944 -0.09002696 0.18140037 0.055442106 0.07567026 -0.22872241 -0.11827631 0.08088203
-0.049002346 -0.06751341 0.0053790137 0.0372587 -0.03149987 0.05620121 -0.019477004 0.008131563
-0.12330584 0.40848282 0.07436336 -0.13048092 -0.017162219 -0.173953 0.108159736 -0.20760229
-0.033967365 -0.04998253 0.1150766 -0.13691047 -0.04589216 0.015646724 0.020761972 0.25163174
-0.16146417 -0.18661222 -0.060104776 -0.11820629 0.14371702 -0.11204379 0.113840304 0.09505524
0.008422219 -0.042130418 -0.08481385 -0.006075258 0.06642993 -0.05884654 -0.0042049806 -0.2845995
-0.09544055 0.020321945 -0.06280178 -0.14302208 0.019938271 0.109644935 0.20509517 0.11790516
0.0049948376 -0.10825192 -0.009690904 0.14844726 -0.14312127 0.3030381 0.24567825 -0.11274385
-0.15198177 -0.0098396735 -0.050844405 0.079287425 -0.093491 0.092551015 -0.18393824 0.022397542
-0.06396891 -0.34580353 0.00799017 -0.17325738 -0.18179779 -0.07987125 -0.0827582 -0.2067574
0.064076856 -0.066186614 0.13105844 -0.35987803 -0.033192564 -0.008329984 -0.059907936 0.089831896
0.010381483 0.009886243 -0.2769376 0.14541759 -0.098057866 0.013142838 -0.20667958 0.2286848
-0.14009203 -0.057399042 0.11111461 0.06061876 0.09147477 -0.02700133 0.09201088 0.045757003
-0.26395237 0.09756461 -0.153977 -0.0037395332 0.12012435 -0.08920298 -0.19498801 0.012203873
0.0061348793 -0.07151112 0.037048493 0.14250447 -0.0926667 0.09104883 -0.18172716 0.10794251
0.018306259 -0.009487733 0.047770586 0.21885201 0.11995026 -0.035416916 -0.15110329 -0.021815427
0.19752729 -0.14917615 0.020626435 -0.12896389 0.051364847 -0.1637296 -0.053177807 0.19902858
-0.039551098 -0.026124785 0.30088583 -0.053276498 0.017878555 -0.14089814 0.08574657 0.19331662
0.011899665 0.03356085 0.058346674 0.27052093 -0.13045917 0.018932823 -0.11388272 -0.026512291
0.043538846 0.005949264 0.07505518 0.014269647 -0.07576018 -0.09821754 0.026800822 0.025037164
-0.2107158 -0.03437629 -0.033225533 -0.03657683 -0.27414525 -0.26666984 -0.14015266 0.02564899
-0.157962 0.14306541 0.19465235 -0.116521426 0.08752167 0.10902904 -0.15025753 -0.026150718
0.15846604 0.013919007 -0.002349114 -0.049315747 0.11463136 -0.11609078 0.009428387 -0.11682288
0.05667116 0.18701044 -0.12014573 0.09393558 -0.13120095 -0.098993495 0.13800892 -0.17621969
0.03417053 0.10950454 0.036198772 0.14437155 0.002986373 0.35363775 0.06894486 -0.28596422
0.114418425 0.20371662 0.055148598 0.046502233 -0.23604092 -0.33125407 0.03449865 -0.15521736
0.023893379 -0.01227761 -0.18508849 -0.046463657 -0.1118219 0.008740463 0.18346283 0.10924881
-0.16027789 0.047412857 0.12064979 0.0023180058 -0.032490734 -0.024512332 -0.008032175 -0.15514214
-0.04094291 0.03391773 -0.22066349 0.061169896 0.019845203 -0.033359185 -0.032963492 0.16030909
00000000: c1b8 8ebd 6742 99bd 7d06 dcbc c393 9b3e
00000010: 7b52 543e cb21 273e 6bbb e0bd 3848 fabd
00000020: 24ad b63d d481 1a3c ee02 89be b284 803e
00000030: 13cf c4bd 677b 5b3e f888 043d 6b18 093e
00000040: 9cc7 d6bc 4390 11be 3952 a8bd d911 34be
00000050: 6ffc d63d f2e4 ac3d ef19 debd 8556 9e3d
00000060: aa1d b1be 0e60 b8bd 05c1 393e 4317 633d
00000070: 02f9 9a3d 3536 6abe da3a f2bd 7aa5 a53d
00000080: afb6 48bd 7844 8abd 7042 b03b 949c 183d
00000090: 0206 01bd 3d33 663d 3d8e 9fbc 3f3a 053c
000000a0: c687 fcbd a924 d13e d14b 983d ca9c 05be
000000b0: c897 8cbc bc20 32be da82 dd3d b295 54be
000000c0: 5d21 0bbd 7bba 4cbd 48ad eb3d 4232 0cbe
000000d0: 6bf9 3bbd 8f2d 803c 0315 aa3c e0d5 803e
000000e0: dd56 25be 4617 3fbe 6d30 76bd 2416 f2bd
000000f0: 8e2a 133e 3777 e5bd 1b25 e93d 52ac c23d
00000100: 59fd 093c f290 2cbd e2b2 adbd f512 c7bb
00000110: 6a0c 883d 1209 71bd efc9 89bb 07b7 91be
00000120: 5676 c3bd 357a a63c 389e 80bd 6174 12be
00000130: 9655 a33c 868d e03d 7804 523e 4378 f13d
00000140: bcab a33b 2fb3 ddbd 99c6 1ebc 8f02 183e
00000150: 628e 12be cf27 9b3e 1493 7b3e 3fe6 e6bd
00000160: 1ca1 1bbe 9536 21bc 3942 50bd 7261 a23d
00000170: 3678 bfbd 638b bd3d 4e5a 3cbe 0d7b b73c
00000180: 2202 83bd 290d b1be 34e9 023c 626a 31be
00000190: 3329 3abe 8a93 a3bd 227d a9bd 36b8 53be
000001a0: ba3a 833d d98c 87bd 2f34 063e ef41 b8be
000001b0: edf4 07bd 7c7a 08bc 0662 75bd c9f9 b73d
000001c0: 1817 2a3c e9f9 213c c4ca 8dbe 59e8 143e
000001d0: 90d2 c8bd 0f55 573c d0a3 53be 592c 6a3e
000001e0: 4974 0fbe 421b 6bbd 0f90 e33d 604b 783d
000001f0: 2057 bb3d e531 ddbc 3370 bc3d b26b 3b3d
00000200: c424 87be f4cf c73d 26ac 1dbe f512 75bb
00000210: c103 f63d 0db0 b6bd f0aa 47be c1f2 473c
00000220: 1907 c93b 6c74 92bd 29c0 173d b1ec 113e
00000230: 0ac8 bdbd cf77 ba3d af16 3abe f610 dd3d
00000240: 02f7 953c 7072 1bbc 17ab 433d be1a 603e
00000250: 7ba8 f53d 5411 11bd d2ba 1abe 44b6 b2bc
00000260: 9844 4a3e a2c1 18be c5f8 a83c 1c0f 04be
00000270: f263 523d bba8 27be f9d0 59bd 26ce 4b3e
00000280: 5500 22bd a503 d6bc b50d 9a3e 7538 5abd
00000290: 0c76 923c 9a47 10be e69b af3d cbf4 453e
000002a0: d0f6 423c 1a77 093d ecfc 6e3d b881 8a3e
000002b0: 1797 05be 0219 9b3c 583b e9bd 4e30 d9bc
000002c0: ca55 323d 0bf2 c23b 88b6 993d 3dcb 693c
000002d0: 2728 9bbd 4726 c9bd 668d db3c bd1a cd3c
000002e0: e2c5 57be 27ce 0cbd 7f17 08bd 96d1 15bd
000002f0: c45c 8cbe f388 88be 2e84 0fbe d51d d23c
00000300: cac0 21be bd7f 123e f252 473e c9a2 eebd
00000310: 903e b33d 9e4a df3d 1cdd 19be 083a d6bc
00000320: ec44 223e 8c0c 643c 98f3 19bb 4fff 49bd
00000330: d9c3 ea3d 01c1 edbd 8579 1a3c d640 efbd
00000340: 0520 683d aa7f 3f3e f70e f6bd 4c61 c03d
00000350: 8b59 06be 1abd cabd 3652 0d3e ef72 34be
00000360: 66f6 0b3d eb43 e03d 2a45 143d 23d6 133e
00000370: 06b7 433b 0210 b53e f632 8d3d e769 92be
00000380: 3554 ea3d 179b 503e 7fe3 613d 2079 3e3d
00000390: b6b4 71be 229a a9be 754e 0d3d 4df1 1ebe
000003a0: 0cbc c33c 0728 49bc d687 3dbe ad50 3ebd
000003b0: e102 e5bd 2934 0f3c aedd 3b3e d7bd df3d
000003c0: e31f 24be fc33 423d 3d17 f73d afe9 173b
000003d0: 0115 05bd 16ce c8bc 6299 03bc 95dd 1ebe
000003e0: c1b3 27bd 51ed 0a3d 9cf5 61be 498d 7a3d
000003f0: 6892 a23c a4a3 08bd ba04 07bd 1128 243e

network_body._body_endoder.seq_layers.2.bias f4 [64]
0.0016534778 -0.012733211 -0.040578734 -0.027105376 -0.0013672591 -0.009886381 0.010779773 0.026632236
0.057629097 0.0065747784 -0.025689049 0.006265644 -0.033787508 -0.041602593 0.0015845333 -0.04259255
-0.013913116 -0.009111559 -0.05595905 -0.035406828 -0.03602863 0.037504762 -0.010491856 -0.038608897
0.04551493 0.00043892168 0.05654133 -0.03254572 0.005622058 -0.031433266 0.04481346 0.02851707
-0.016896721 0.0123373205 0.019603383 -0.021871934 0.08161299 -0.015661612 0.047347546 0.049635623
0.022552168 -0.016430585 0.010801845 -0.06882422 -0.03823805 -0.039092023 0.008030512 -0.07436624
0.004413466 -0.043570828 -0.07010163 0.072792545 0.01902484 0.0053342213 0.10394995 -0.016682193
0.023224568 0.015193982 0.006419125 -0.0068284688 -0.03238563 0.011917637 0.0017664689 0.02201579
00000000: 82b9 d83a f59e 50bc e335 26bd 180c debc
00000010: 9a35 b3ba 7dfa 21bc a59d 303c d92b da3c
00000020: 7d0c 6c3d 3d71 d73b d771 d2bc 0850 cd3b
00000030: c564 0abd 7b67 2abd 1db0 cf3a 8775 2ebd
00000040: d7f3 63bc a648 15bc 5135 65bd c006 11bd
00000050: c292 13bd 989e 193d 09e6 2bbc 5d24 1ebd
00000060: dd6d 3a3d 121f e639 e297 673d a94e 05bd
00000070: 3e39 b83b 2bc0 00bd 528e 373d a19c e93c
00000080: fe6a 8abc 7922 4a3c 4697 a03c c52c b3bc
00000090: b624 a73d c84c 80bc 80ef 413d b94e 4b3d
000000a0: 53bf b83c 6f99 86bc 39fa 303c b6f3 8cbd
000000b0: 809f 1cbd f51e 20bd 6992 033c 544d 98bd
000000c0: d69e 903b 5377 32bd 7291 8fbd 4214 953d
000000d0: fbd9 9b3c b1ca ae3b b6e3 d43d 18a9 88bc
000000e0: 7341 be3c 2ef0 783c 8657 d23b 59c1 dfbb
000000f0: cba6 04bd 3142 433c dc88 e73a 755a b43c

action_model._discrete_distribution.branches.0.weight f4 [54, 64]
-0.013614353 -0.009796199 -0.016117131 0.11778594 -0.0026080625 0.028461844 -0.067773424 -0.04094829
-0.08693277 -0.00261462 -0.0078007337 -0.046660032 0.046360724 -0.021486951 0.10005138 0.051769122
0.008356515 -0.037483912 0.006416002 0.03506539 -0.06342618 0.002093588 -0.014285349 0.031884704
-0.051157746 -0.04160564 -0.060268477 0.021673894 -0.10134826 -0.03872147 0.027117873 -0.025805783
-0.013611922 0.048234 0.021001598 -0.013966726 0.0052425885 -0.005020248 -0.06832762 -0.121363916
0.032723684 -0.012172972 0.0038059496 0.016956588 -0.027175551 0.021598905 -0.027739232 -0.0351756
-0.021459168 -0.0070284097 0.0077388124 -0.08096214 -0.02659492 -0.08521757 -0.049758304 -0.04636732
-0.10614907 -0.07069334 0.01584708 0.008282102 0.040998016 -0.029086776 0.015138179 -0.0485778
-0.009635451 -0.03491945 0.017491303 0.00018124768 0.005793131 0.0034894838 0.08455325 0.026484285
0.13334726 0.03716431 -0.020553142 0.00622939 0.038790483 0.00805924 0.01069807 -0.022605985
-0.0052311397 -0.019801188 -0.034372754 0.05143828 0.029499872 -0.054481238 -0.01562733 -0.034475673
0.08073369 0.070284784 0.0150857875 0.033151686 -0.026728244 0.01359446 0.06651716 0.014512601
0.034680456 0.02480631 0.104596116 0.07026005 -0.0209676 0.03965585 0.05656772 0.03887558
-0.008458008 0.00942046 0.022293856 0.009758974 0.015324539 0.018761741 -0.008701633 0.041700974
-0.0639345 0.027540697 0.023309981 0.08990149 0.015871787 0.022641188 0.0031207937 0.04482149
-0.030615447 -0.031837907 -0.00061903754 0.034817927 0.036693785 0.010000567 0.025255118 0.036699098
0.04856829 0.019259242 -0.045340918 0.055177756 0.03846791 0.028472878 0.005732306 -0.0040381723
0.11382264 0.03066157 -0.012355816 -0.03252421 0.021669384 -0.0022485752 0.10249151 0.01552416
-0.044783022 0.03920339 0.02863671 0.033511795 -0.046701577 -0.05617484 0.027225753 -0.06905639
0.11241964 0.035762344 -0.04759834 0.02553177 0.100965776 0.04489826 0.065603524 -0.06469949
0.02984723 -0.014887152 -0.01171284 -0.017889738 0.046265528 0.019457495 -0.055893637 -0.015924346
0.023034021 0.018200211 0.016652433 -0.007759205 -0.016357182 0.045422643 -0.05511563 0.013160299
0.12530726 0.011830159 0.03255847 -0.047851283 -0.025971098 -0.0154534215 0.011762172 0.0102298055
0.038158227 0.019833952 -0.000722308 0.007314019 0.08221261 -0.030141924 0.02797941 -0.009089861
-0.023314837 0.019738792 0.006617959 0.022838902 0.03747219 0.05664681 -0.05114469 -0.03514877
0.07328632 0.02829564 -0.009902095 0.013831667 -0.04289007 0.01369138 -0.05711792 -0.019392543
0.05045544 -0.025413722 -0.004071716 -0.026687946 0.0016474748 0.09390172 -0.042884417 0.008563461
-0.034733243 -0.022151323 -0.0014720579 -0.04654547 0.06257311 0.038906153 -0.0122706825 0.009720976
0.00047067465 -0.050427493 0.017807346 -0.059415367 -0.021906236 0.0071070907 0.060418554 0.12524247
-0.004520264 -0.0203888 -0.04252868 -0.030400218 -0.027400315 -0.005986628 -0.059628353 -0.010237229
0.05831009 0.06496736 -0.031818345 0.00017630139 0.013057453 0.027908389 0.030880658 -0.028374473
-0.026186764 0.0042695827 -0.008396635 -0.014794855 0.010622708 0.016268723 -0.0029672452 -0.011832891
00000000: bc0e 5fbc 3d80 20bc 1308 84bc c139 f13d
00000010: 07ec 2abb d028 e93c cbcc 8abd 65b9 27bd
00000020: cf09 b2bd 0b5a 2bbb 4c9d ffbb 971e 3fbd
00000030: bee4 3d3d 6705 b0bc bde7 cc3d dc0b 543d
00000040: c4e9 083c bb88 19bd 533d d23b baa0 0f3d
00000050: 96e5 81bd 9434 093b 190d 6abc 8999 023d
00000060: c98a 51bd ad6a 2abd 14dc 76bd 738d b13c
00000070: ad8f cfbd 679a 1ebd 4d26 de3c a666 d3bc
00000080: 8a04 5fbc 0491 453d 8b0b ac3c b2d4 64bc
00000090: 05ca ab3b e480 a4bb 5aef 8bbd a58d f8bd
000000a0: 4509 063d 2571 47bc 3d6d 793b 8be8 8a3c
000000b0: 439f debc 30f0 b03c 633d e3bc 4a14 10bd
000000c0: 23cb afbc 934e e6bb dd95 fd3b 7acf a5bd
000000d0: 97dd d9bc 8d86 aebd 5dcf 4bbd a9eb 3dbd
000000e0: af64 d9bd abc7 90bd bcd1 813c a7b1 073c
000000f0: 89ed 273d 6447 eebc 2006 783c 84f9 46bd
00000100: 03de 1dbc b207 0fbd ec49 8f3c 4e0d 3e39
00000110: 4ed4 bd3b d3af 643b 412a ad3d 92f5 d83c
00000120: 2f8c 083e 9b39 183d 105f a8bc e91f cc3b
00000130: c5e2 1e3d e70a 043c f546 2f3c 3030 b9bc
00000140: fb69 abbb 1a36 a2bc 72ca 0cbd f2b0 523d
00000150: b7a9 f13c b827 5fbd e304 80bc 5d36 0dbd
00000160: b457 a53d 78f1 8f3d 612a 773c 10ca 073d
00000170: 31f5 dabc 4cbb 5e3c 263a 883d 43c6 6d3c
00000180: 180d 0e3d 9a36 cb3c 7d36 d63d 80e4 8f3d
00000190: 3fc4 abbc 2c6e 223d 8eb3 673d 003c 1f3d
000001a0: 7593 0abc 4658 1a3c 9ba1 b63c 1be4 1f3c
000001b0: c613 7b3c 39b2 993c 4b91 0ebc a4ce 2a3d
000001c0: 17f0 82bd 079d e13c 93f4 be3c 461e b83d
000001d0: 8d05 823c 037a b93c 3b86 4c3b bd96 373d
000001e0: 3fcd fabc 7768 02bd e846 22ba 3e9d 0e3d
000001f0: 394c 163d 6bd9 233c d2e3 ce3c cb51 163d
00000200: 8bef 463d 8fc5 9d3c 66b7 39bd 1202 623d
00000210: 8790 1d3d f43f e93c 11d6 bb3b a552 84bb
00000220: d81b e93d f92d fb3c 0c70 4abc 1b38 05bd
00000230: fe83 b13c d55c 13bb 12e7 d13d 0c59 7e3c
00000240: 676e 37bd bc93 203d 8997 ea3c aa43 093d
00000250: 274a 3fbd 9717 66bd 8b08 df3c 706d 8dbd
00000260: 453c e63d 897b 123d 7af6 42bd 0128 d13c
00000270: 25c7 ce3d 3de7 373d 245b 863d 2b81 84bd
00000280: 2e82 f43c 3ee9 73bc 36e7 3fbc 808d 92bc
00000290: ec80 3d3d 5365 9f3c baf0 64bd c673 82bc
000002a0: d8b1 bc3c 9c18 953c af6a 883c ee40 febb
000002b0: 7fff 85bc 180d 3a3d edc0 61bd 4b9e 573c
000002c0: 8c50 003e 49d3 413c 085c 053d b5ff 43bd
000002d0: 57c1 d4bc 5930 7dbc 20b6 403c ea9a 273c
000002e0: cd4b 1c3d d07a a23c 4559 3dba 70aa ef3b
000002f0: 165f a83d 32ec f6bc 1335 e53c a4ed 14bc
00000300: c2fe bebc 3fb3 a13c 77db d83b a618 bb3c
00000310: 707c 193d 7c06 683d 187d 51bd 28f8 0fbd
00000320: 2317 963d 42cc e73c 663c 22bc 379e 623c
00000330: 7fad 2fbd cf51 603c 7bf4 69bd 1cdd 9ebc
00000340: 5daa 4e3d 7030 d0bc 086c 85bb aea0 dabc
00000350: 15f0 d73a 8c4f c03d 92a7 2fbd c24d 0c3c
00000360: 7244 0ebd b176 b5bc 11f2 c0ba 76a6 3ebd
00000370: 5526 803d 0f5c 1f3d f90a 49bc bb44 1f3c
00000380: e2c4 f639 0f8d 4ebd b6e0 913c 875d 73bd
00000390: b574 b3bc 99e2 e83b 7279 773d 903f 003e
000003a0: b91e 94bb 6a06 a7bc 8e32 2ebd e109 f9bc
000003b0: a076 e0bc 7a2b c4bb dc3c 74bd 0dba 27bc
000003c0: 90d6 6e3d 9b0d 853d f453 02bd 8bdd 3839
000003d0: edee 553c 22a0 e43c 6ff9 fc3c 9571 e8bc
000003e0: a085 d6bc dbe7 8b3b 0a92 09bc 1f66 72bc
000003f0: de0a 2e3c fc45 853c 1d76 42bb bede 41bc

action_model._discrete_distribution.branches.0.bias f4 [54]
-0.0044186786 0.019486709 0.027851224 -0.009296649 0.012125015 0.004023258 0.009281791 -0.047284853
0.005067077 -0.016178273 0.012256242 0.017192202 0.037663233 0.018484041 0.043552645 0.005166319
0.029271279 0.04083278 0.011421375 -0.026430944 -7.159407e-05 0.0018891168 -0.0009549463 -0.0009947562
0.038580988 0.02348084 0.012495113 0.007732403 0.019687044 -0.0025786327 0.030440638 -0.018421527
0.009661583 0.029747333 -0.009993828 0.019608518 0.0066517284 -0.030719656 0.050296742 -0.056789596
-0.004941284 -0.015581085 -0.014109942 0.016017217 -0.0064066364 0.0 0.0 0.0
0.0 0.0 0.0 0.0 0.0 -0.019150702
00000000: 90ca 90bb 97a2 9f3c 4028 e43c f950 18bc
00000010: 00a8 463c 89d5 833b a712 183c c3ad 41bd
00000020: b909 a63b 4c88 84bc 68ce 483c a9d6 8c3c
00000030: c344 1a3d d86b 973c 4264 323d 3a4a a93b
00000040: 52ca ef3c 4640 273d b820 3b3c b585 d8bc
00000050: c624 96b8 3e9c f73a 5d55 7aba 7b62 82ba
00000060: 1907 1e3d e45a c03c 4db8 4c3c 1960 fd3b
00000070: b946 a13c 47fe 28bb a55e f93c bee8 96bc
00000080: 9e4b 1e3c aeb0 f33c 27bd 23bc 0ba2 a03c
00000090: bef6 d93b caa7 fbbc f503 4e3d 359c 68bd
000000a0: 7fea a1bb cf47 7fbc 632d 67bc 8a36 833c
000000b0: c3ee d1bb 0000 0000 0000 0000 0000 0000
000000c0: 0000 0000 0000 0000 0000 0000 0000 0000
000000d0: 0000 0000 efe1 9cbc
